epoch 1
ModuleList(
  (0): Linear(in_features=784, out_features=16, bias=True)
  (1): Linear(in_features=16, out_features=16, bias=True)
  (2): Linear(in_features=16, out_features=11, bias=True)
)
Epoch: 1
[Train]		 Loss: 2.39, accuracy: 0.1270
[Validation]	 J_a: 2.38, accuracy: 0.2103
epoch 2
ModuleList(
  (0): Linear(in_features=784, out_features=16, bias=True)
  (1): Linear(in_features=16, out_features=16, bias=True)
  (2): Linear(in_features=16, out_features=11, bias=True)
)
Epoch: 2
[Train]		 Loss: 2.38, accuracy: 0.2028
[Validation]	 J_a: 2.38, accuracy: 0.2119
epoch 3
ModuleList(
  (0): Linear(in_features=784, out_features=16, bias=True)
  (1): Linear(in_features=16, out_features=16, bias=True)
  (2): Linear(in_features=16, out_features=11, bias=True)
)
Epoch: 3
[Train]		 Loss: 2.38, accuracy: 0.2199
[Validation]	 J_a: 2.38, accuracy: 0.2161
epoch 4
ModuleList(
  (0): Linear(in_features=784, out_features=16, bias=True)
  (1): Linear(in_features=16, out_features=16, bias=True)
  (2): Linear(in_features=16, out_features=11, bias=True)
)
Epoch: 4
[Train]		 Loss: 2.38, accuracy: 0.1825
[Validation]	 J_a: 2.38, accuracy: 0.2075
epoch 5
ModuleList(
  (0): Linear(in_features=784, out_features=16, bias=True)
  (1): Linear(in_features=16, out_features=16, bias=True)
  (2): Linear(in_features=16, out_features=11, bias=True)
)
Epoch: 5
[Train]		 Loss: 2.38, accuracy: 0.2102
[Validation]	 J_a: 2.38, accuracy: 0.2091
epoch 6
ModuleList(
  (0): Linear(in_features=784, out_features=16, bias=True)
  (1): Linear(in_features=16, out_features=16, bias=True)
  (2): Linear(in_features=16, out_features=11, bias=True)
)
Epoch: 6
[Train]		 Loss: 2.38, accuracy: 0.1974
[Validation]	 J_a: 2.38, accuracy: 0.2157
epoch 7
ModuleList(
  (0): Linear(in_features=784, out_features=16, bias=True)
  (1): Linear(in_features=16, out_features=16, bias=True)
  (2): Linear(in_features=16, out_features=11, bias=True)
)
Epoch: 7
[Train]		 Loss: 2.38, accuracy: 0.2113
[Validation]	 J_a: 2.38, accuracy: 0.2159
epoch 8
ModuleList(
  (0): Linear(in_features=784, out_features=16, bias=True)
  (1): Linear(in_features=16, out_features=16, bias=True)
  (2): Linear(in_features=16, out_features=11, bias=True)
)
Epoch: 8
[Train]		 Loss: 2.38, accuracy: 0.1953
[Validation]	 J_a: 2.38, accuracy: 0.2119
epoch 9
ModuleList(
  (0): Linear(in_features=784, out_features=16, bias=True)
  (1): Linear(in_features=16, out_features=16, bias=True)
  (2): Linear(in_features=16, out_features=11, bias=True)
)
Epoch: 9
[Train]		 Loss: 2.38, accuracy: 0.1974
[Validation]	 J_a: 2.38, accuracy: 0.2139
epoch 10
ModuleList(
  (0): Linear(in_features=784, out_features=16, bias=True)
  (1): Linear(in_features=16, out_features=16, bias=True)
  (2): Linear(in_features=16, out_features=11, bias=True)
)
Epoch: 10
[Train]		 Loss: 2.38, accuracy: 0.1985
[Validation]	 J_a: 2.38, accuracy: 0.2157
epoch 11
ModuleList(
  (0): Linear(in_features=784, out_features=16, bias=True)
  (1): Linear(in_features=16, out_features=16, bias=True)
  (2): Linear(in_features=16, out_features=11, bias=True)
)
Epoch: 11
[Train]		 Loss: 2.38, accuracy: 0.1942
[Validation]	 J_a: 2.38, accuracy: 0.2151
epoch 12
ModuleList(
  (0): Linear(in_features=784, out_features=16, bias=True)
  (1): Linear(in_features=16, out_features=16, bias=True)
  (2): Linear(in_features=16, out_features=11, bias=True)
)
Epoch: 12
[Train]		 Loss: 2.38, accuracy: 0.1921
[Validation]	 J_a: 2.38, accuracy: 0.2109
epoch 13
ModuleList(
  (0): Linear(in_features=784, out_features=16, bias=True)
  (1): Linear(in_features=16, out_features=16, bias=True)
  (2): Linear(in_features=16, out_features=11, bias=True)
)
Epoch: 13
[Train]		 Loss: 2.38, accuracy: 0.2028
[Validation]	 J_a: 2.38, accuracy: 0.2129
epoch 14
ModuleList(
  (0): Linear(in_features=784, out_features=16, bias=True)
  (1): Linear(in_features=16, out_features=16, bias=True)
  (2): Linear(in_features=16, out_features=11, bias=True)
)
Epoch: 14
[Train]		 Loss: 2.38, accuracy: 0.2391
[Validation]	 J_a: 2.38, accuracy: 0.2129
epoch 15
ModuleList(
  (0): Linear(in_features=784, out_features=16, bias=True)
  (1): Linear(in_features=16, out_features=16, bias=True)
  (2): Linear(in_features=16, out_features=11, bias=True)
)
Epoch: 15
[Train]		 Loss: 2.38, accuracy: 0.1814
[Validation]	 J_a: 2.38, accuracy: 0.2179
epoch 16
ModuleList(
  (0): Linear(in_features=784, out_features=16, bias=True)
  (1): Linear(in_features=16, out_features=16, bias=True)
  (2): Linear(in_features=16, out_features=11, bias=True)
)
Epoch: 16
[Train]		 Loss: 2.38, accuracy: 0.2305
[Validation]	 J_a: 2.38, accuracy: 0.2167
epoch 17
ModuleList(
  (0): Linear(in_features=784, out_features=16, bias=True)
  (1): Linear(in_features=16, out_features=16, bias=True)
  (2): Linear(in_features=16, out_features=11, bias=True)
)
Epoch: 17
[Train]		 Loss: 2.38, accuracy: 0.2359
[Validation]	 J_a: 2.38, accuracy: 0.2113
epoch 18
ModuleList(
  (0): Linear(in_features=784, out_features=16, bias=True)
  (1): Linear(in_features=16, out_features=16, bias=True)
  (2): Linear(in_features=16, out_features=11, bias=True)
)
Epoch: 18
[Train]		 Loss: 2.38, accuracy: 0.2038
[Validation]	 J_a: 2.38, accuracy: 0.2127
epoch 19
ModuleList(
  (0): Linear(in_features=784, out_features=16, bias=True)
  (1): Linear(in_features=16, out_features=16, bias=True)
  (2): Linear(in_features=16, out_features=11, bias=True)
)
Epoch: 19
[Train]		 Loss: 2.38, accuracy: 0.2166
[Validation]	 J_a: 2.38, accuracy: 0.2167
epoch 20
ModuleList(
  (0): Linear(in_features=784, out_features=16, bias=True)
  (1): Linear(in_features=16, out_features=16, bias=True)
  (2): Linear(in_features=16, out_features=11, bias=True)
)
Epoch: 20
[Train]		 Loss: 2.38, accuracy: 0.2156
[Validation]	 J_a: 2.38, accuracy: 0.2175
epoch 21
ModuleList(
  (0): Linear(in_features=784, out_features=16, bias=True)
  (1): Linear(in_features=16, out_features=16, bias=True)
  (2): Linear(in_features=16, out_features=11, bias=True)
)
Epoch: 21
[Train]		 Loss: 2.38, accuracy: 0.2006
[Validation]	 J_a: 2.38, accuracy: 0.2145
epoch 22
ModuleList(
  (0): Linear(in_features=784, out_features=16, bias=True)
  (1): Linear(in_features=16, out_features=16, bias=True)
  (2): Linear(in_features=16, out_features=11, bias=True)
)
Epoch: 22
[Train]		 Loss: 2.38, accuracy: 0.2188
[Validation]	 J_a: 2.38, accuracy: 0.2155
epoch 23
ModuleList(
  (0): Linear(in_features=784, out_features=16, bias=True)
  (1): Linear(in_features=16, out_features=16, bias=True)
  (2): Linear(in_features=16, out_features=11, bias=True)
)
Epoch: 23
[Train]		 Loss: 2.38, accuracy: 0.2006
[Validation]	 J_a: 2.38, accuracy: 0.2155
