epoch 1
ModuleList(
  (0): Linear(in_features=784, out_features=16, bias=True)
  (1): Linear(in_features=16, out_features=16, bias=True)
  (2): Linear(in_features=16, out_features=11, bias=True)
)
Epoch: 1
[Train]		 Loss: 2.38, accuracy: 0.1547
[Validation]	 J_a: 2.39, accuracy: 0.2666
epoch 2
ModuleList(
  (0): Linear(in_features=784, out_features=16, bias=True)
  (1): Linear(in_features=16, out_features=16, bias=True)
  (2): Linear(in_features=16, out_features=11, bias=True)
)
Epoch: 2
[Train]		 Loss: 2.35, accuracy: 0.2252
[Validation]	 J_a: 2.39, accuracy: 0.2610
epoch 3
ModuleList(
  (0): Linear(in_features=784, out_features=16, bias=True)
  (1): Linear(in_features=16, out_features=16, bias=True)
  (2): Linear(in_features=16, out_features=11, bias=True)
)
Epoch: 3
[Train]		 Loss: 2.35, accuracy: 0.2273
[Validation]	 J_a: 2.39, accuracy: 0.2492
epoch 4
ModuleList(
  (0): Linear(in_features=784, out_features=16, bias=True)
  (1): Linear(in_features=16, out_features=16, bias=True)
  (2): Linear(in_features=16, out_features=11, bias=True)
)
Epoch: 4
[Train]		 Loss: 2.35, accuracy: 0.2273
[Validation]	 J_a: 2.39, accuracy: 0.2352
epoch 5
ModuleList(
  (0): Linear(in_features=784, out_features=16, bias=True)
  (1): Linear(in_features=16, out_features=16, bias=True)
  (2): Linear(in_features=16, out_features=11, bias=True)
)
Epoch: 5
[Train]		 Loss: 2.35, accuracy: 0.2231
[Validation]	 J_a: 2.39, accuracy: 0.2210
epoch 6
ModuleList(
  (0): Linear(in_features=784, out_features=16, bias=True)
  (1): Linear(in_features=16, out_features=16, bias=True)
  (2): Linear(in_features=16, out_features=11, bias=True)
)
Epoch: 6
[Train]		 Loss: 2.35, accuracy: 0.2369
[Validation]	 J_a: 2.39, accuracy: 0.2049
epoch 7
ModuleList(
  (0): Linear(in_features=784, out_features=16, bias=True)
  (1): Linear(in_features=16, out_features=16, bias=True)
  (2): Linear(in_features=16, out_features=11, bias=True)
)
Epoch: 7
[Train]		 Loss: 2.35, accuracy: 0.2540
[Validation]	 J_a: 2.39, accuracy: 0.1937
epoch 8
ModuleList(
  (0): Linear(in_features=784, out_features=16, bias=True)
  (1): Linear(in_features=16, out_features=16, bias=True)
  (2): Linear(in_features=16, out_features=11, bias=True)
)
Epoch: 8
[Train]		 Loss: 2.35, accuracy: 0.2327
[Validation]	 J_a: 2.39, accuracy: 0.1889
epoch 9
ModuleList(
  (0): Linear(in_features=784, out_features=16, bias=True)
  (1): Linear(in_features=16, out_features=16, bias=True)
  (2): Linear(in_features=16, out_features=11, bias=True)
)
Epoch: 9
[Train]		 Loss: 2.35, accuracy: 0.2316
[Validation]	 J_a: 2.39, accuracy: 0.1865
epoch 10
ModuleList(
  (0): Linear(in_features=784, out_features=16, bias=True)
  (1): Linear(in_features=16, out_features=16, bias=True)
  (2): Linear(in_features=16, out_features=11, bias=True)
)
Epoch: 10
[Train]		 Loss: 2.35, accuracy: 0.2092
[Validation]	 J_a: 2.39, accuracy: 0.1849
epoch 11
ModuleList(
  (0): Linear(in_features=784, out_features=16, bias=True)
  (1): Linear(in_features=16, out_features=16, bias=True)
  (2): Linear(in_features=16, out_features=11, bias=True)
)
Epoch: 11
[Train]		 Loss: 2.35, accuracy: 0.2220
[Validation]	 J_a: 2.39, accuracy: 0.1843
epoch 12
ModuleList(
  (0): Linear(in_features=784, out_features=16, bias=True)
  (1): Linear(in_features=16, out_features=16, bias=True)
  (2): Linear(in_features=16, out_features=11, bias=True)
)
Epoch: 12
[Train]		 Loss: 2.35, accuracy: 0.2295
[Validation]	 J_a: 2.39, accuracy: 0.1831
epoch 13
ModuleList(
  (0): Linear(in_features=784, out_features=16, bias=True)
  (1): Linear(in_features=16, out_features=16, bias=True)
  (2): Linear(in_features=16, out_features=11, bias=True)
)
Epoch: 13
[Train]		 Loss: 2.35, accuracy: 0.2337
[Validation]	 J_a: 2.39, accuracy: 0.1827
epoch 14
ModuleList(
  (0): Linear(in_features=784, out_features=16, bias=True)
  (1): Linear(in_features=16, out_features=16, bias=True)
  (2): Linear(in_features=16, out_features=11, bias=True)
)
Epoch: 14
[Train]		 Loss: 2.35, accuracy: 0.2369
[Validation]	 J_a: 2.39, accuracy: 0.1817
epoch 15
ModuleList(
  (0): Linear(in_features=784, out_features=16, bias=True)
  (1): Linear(in_features=16, out_features=16, bias=True)
  (2): Linear(in_features=16, out_features=11, bias=True)
)
Epoch: 15
[Train]		 Loss: 2.35, accuracy: 0.2327
[Validation]	 J_a: 2.39, accuracy: 0.1807
epoch 16
ModuleList(
  (0): Linear(in_features=784, out_features=16, bias=True)
  (1): Linear(in_features=16, out_features=16, bias=True)
  (2): Linear(in_features=16, out_features=11, bias=True)
)
Epoch: 16
[Train]		 Loss: 2.35, accuracy: 0.2134
[Validation]	 J_a: 2.39, accuracy: 0.1801
epoch 17
ModuleList(
  (0): Linear(in_features=784, out_features=16, bias=True)
  (1): Linear(in_features=16, out_features=16, bias=True)
  (2): Linear(in_features=16, out_features=11, bias=True)
)
Epoch: 17
[Train]		 Loss: 2.35, accuracy: 0.2241
[Validation]	 J_a: 2.39, accuracy: 0.1791
epoch 18
ModuleList(
  (0): Linear(in_features=784, out_features=16, bias=True)
  (1): Linear(in_features=16, out_features=16, bias=True)
  (2): Linear(in_features=16, out_features=11, bias=True)
)
Epoch: 18
[Train]		 Loss: 2.35, accuracy: 0.2177
[Validation]	 J_a: 2.39, accuracy: 0.1793
epoch 19
ModuleList(
  (0): Linear(in_features=784, out_features=16, bias=True)
  (1): Linear(in_features=16, out_features=16, bias=True)
  (2): Linear(in_features=16, out_features=11, bias=True)
)
Epoch: 19
[Train]		 Loss: 2.35, accuracy: 0.2092
[Validation]	 J_a: 2.39, accuracy: 0.1783
epoch 20
ModuleList(
  (0): Linear(in_features=784, out_features=16, bias=True)
  (1): Linear(in_features=16, out_features=16, bias=True)
  (2): Linear(in_features=16, out_features=11, bias=True)
)
Epoch: 20
[Train]		 Loss: 2.35, accuracy: 0.2060
[Validation]	 J_a: 2.39, accuracy: 0.1783
epoch 21
ModuleList(
  (0): Linear(in_features=784, out_features=16, bias=True)
  (1): Linear(in_features=16, out_features=16, bias=True)
  (2): Linear(in_features=16, out_features=11, bias=True)
)
Epoch: 21
[Train]		 Loss: 2.35, accuracy: 0.1921
[Validation]	 J_a: 2.39, accuracy: 0.1777
epoch 22
ModuleList(
  (0): Linear(in_features=784, out_features=16, bias=True)
  (1): Linear(in_features=16, out_features=16, bias=True)
  (2): Linear(in_features=16, out_features=11, bias=True)
)
Epoch: 22
[Train]		 Loss: 2.35, accuracy: 0.2081
[Validation]	 J_a: 2.39, accuracy: 0.1771
epoch 23
ModuleList(
  (0): Linear(in_features=784, out_features=16, bias=True)
  (1): Linear(in_features=16, out_features=16, bias=True)
  (2): Linear(in_features=16, out_features=11, bias=True)
)
Epoch: 23
[Train]		 Loss: 2.35, accuracy: 0.1985
[Validation]	 J_a: 2.39, accuracy: 0.1765
epoch 24
ModuleList(
  (0): Linear(in_features=784, out_features=16, bias=True)
  (1): Linear(in_features=16, out_features=16, bias=True)
  (2): Linear(in_features=16, out_features=11, bias=True)
)
Epoch: 24
[Train]		 Loss: 2.35, accuracy: 0.1996
[Validation]	 J_a: 2.39, accuracy: 0.1759
epoch 25
ModuleList(
  (0): Linear(in_features=784, out_features=16, bias=True)
  (1): Linear(in_features=16, out_features=16, bias=True)
  (2): Linear(in_features=16, out_features=11, bias=True)
)
Epoch: 25
[Train]		 Loss: 2.35, accuracy: 0.2188
[Validation]	 J_a: 2.39, accuracy: 0.1751
epoch 26
ModuleList(
  (0): Linear(in_features=784, out_features=16, bias=True)
  (1): Linear(in_features=16, out_features=16, bias=True)
  (2): Linear(in_features=16, out_features=11, bias=True)
)
Epoch: 26
[Train]		 Loss: 2.35, accuracy: 0.2273
[Validation]	 J_a: 2.39, accuracy: 0.1739
epoch 27
ModuleList(
  (0): Linear(in_features=784, out_features=16, bias=True)
  (1): Linear(in_features=16, out_features=16, bias=True)
  (2): Linear(in_features=16, out_features=11, bias=True)
)
Epoch: 27
[Train]		 Loss: 2.35, accuracy: 0.2263
[Validation]	 J_a: 2.39, accuracy: 0.1729
epoch 28
ModuleList(
  (0): Linear(in_features=784, out_features=16, bias=True)
  (1): Linear(in_features=16, out_features=16, bias=True)
  (2): Linear(in_features=16, out_features=11, bias=True)
)
Epoch: 28
[Train]		 Loss: 2.35, accuracy: 0.2199
[Validation]	 J_a: 2.39, accuracy: 0.1721
epoch 29
ModuleList(
  (0): Linear(in_features=784, out_features=16, bias=True)
  (1): Linear(in_features=16, out_features=16, bias=True)
  (2): Linear(in_features=16, out_features=11, bias=True)
)
Epoch: 29
[Train]		 Loss: 2.35, accuracy: 0.2273
[Validation]	 J_a: 2.39, accuracy: 0.1711
epoch 30
ModuleList(
  (0): Linear(in_features=784, out_features=16, bias=True)
  (1): Linear(in_features=16, out_features=16, bias=True)
  (2): Linear(in_features=16, out_features=11, bias=True)
)
Epoch: 30
[Train]		 Loss: 2.35, accuracy: 0.2166
[Validation]	 J_a: 2.39, accuracy: 0.1703
epoch 31
ModuleList(
  (0): Linear(in_features=784, out_features=16, bias=True)
  (1): Linear(in_features=16, out_features=16, bias=True)
  (2): Linear(in_features=16, out_features=11, bias=True)
)
Epoch: 31
[Train]		 Loss: 2.35, accuracy: 0.1932
[Validation]	 J_a: 2.39, accuracy: 0.1691
